…
atus":"ok","timestamp":1577457617443,"user_tz":-330,"elapsed":1935,"user":{"displayName":"Vineeth M","photoUrl":"https://lh3.googleusercontent.com/a-/AAuE7mAmiLzUgr5FFsdKcniKlQh-PNfLmU0Lo9V-rUvb=s64","userId":"07930221275951267559"}}},"source":["new_model.summary()"],"execution_count":23,"outputs":[{"output_type":"stream","text":["Model: \"sequential_1\"\n","_________________________________________________________________\n","Layer (type)                 Output Shape              Param #   \n","=================================================================\n","conv2d (Conv2D)              (None, 26, 26, 8)         80        \n","_________________________________________________________________\n","max_pooling2d (MaxPooling2D) (None, 13, 13, 8)         0         \n","_________________________________________________________________\n","conv2d_1 (Conv2D)            (None, 11, 11, 16)        1168      \n","_________________________________________________________________\n","max_pooling2d_1 (MaxPooling2 (None, 5, 5, 16)          0         \n","_________________________________________________________________\n","dropout (Dropout)            (None, 5, 5, 16)          0         \n","_________________________________________________________________\n","flatten (Flatten)            (None, 400)               0         \n","_________________________________________________________________\n","dense (Dense)                (None, 32)                12832     \n","_________________________________________________________________\n","activation_1 (Activation)    (None, 32)                0         \n","_________________________________________________________________\n","dropout_1 (Dropout)          (None, 32)                0         \n","_________________________________________________________________\n","dense_1 (Dense)              (None, 10)                330       \n","=================================================================\n","Total params: 14,410\n","Trainable params: 14,410\n","Non-trainable params: 0\n","_________________________________________________________________\n"],"name":"stdout"}]},{"cell_type":"code","metadata":{"id":"akM4SC2reYDW","colab_type":"code","colab":{"base_uri":"https://localhost:8080/","height":170},"outputId":"038
…
